…
Copyright (c) 2005-2016 NVIDIA Corporation
Built on Tue_Jan_10_13:22:03_CST_2017
Cuda compilation tools, release 8.0, V8.0.61
</code></pre>

<p>Make sure you don't have <code>mxnet</code> installed.</p>

<pre><code>pip install mxnet-cu80
pip install keras-mxnet
</code></pre>

<p>Running the code on jupyter gives me:</p>

<pre><code>60000 train samples
10000 test samples
_________________________________________________________________
Layer (type)                 Output Shape              Param #   
=================================================================
dense_1 (Dense)              (None, 512)               401920    
_________________________________________________________________
activation_1 (Activation)    (None, 512)               0         
_________________________________________________________________
dropout_1 (Dropout)          (None, 512)               0         
_________________________________________________________________
dense_2 (Dense)              (None, 512)               262656    
_________________________________________________________________
activation_2 (Activation)    (None, 512)               0         
_________________________________________________________________
dropout_2 (Dropout)          (None, 512)               0         
_________________________________________________________________
dense_3 (Dense)              (None, 10)                5130      
_________________________________________________________________
activation_3 (Activation)    (None, 10)                0         
=================================================================
Total params: 669,706
Trainable params: 669,706
Non-trainable params: 0
_________________________________________________________________
Train on 60000 samples, validate on 10000 samples
Epoch 1/20
 6400/60000 [==&gt;...........................] - ETA: 39s - loss: 2.1718 - acc: 0.2587 
/usr/local/lib/python3.6/dist-packages/mxnet/module/bucketing_module.py:408: UserWarning: Optimizer created manually outside Module but rescale_grad is not normalized to 1.0/batch_size/num_workers (1.0 vs. 0.0078125). Is this intended?
…
